Loading data...
Data loaded.
Selecting data...
Normalizing, selecting labels...
Data selected.
Model: "sequential"
_________________________________________________________________
 Layer (type)                Output Shape              Param #   
=================================================================
 conv2d (Conv2D)             (None, 970, 42, 16)       336       
                                                                 
 dropout (Dropout)           (None, 970, 42, 16)       0         
                                                                 
 flatten (Flatten)           (None, 651840)            0         
                                                                 
 dense (Dense)               (None, 32)                20858912  
                                                                 
 dropout_1 (Dropout)         (None, 32)                0         
                                                                 
 dense_1 (Dense)             (None, 14)                462       
                                                                 
=================================================================
Total params: 20,859,710
Trainable params: 20,859,710
Non-trainable params: 0
_________________________________________________________________
Epoch 1/50

 1/32 [..............................] - ETA: 47s - loss: 2.6392 - accuracy: 0.0600
 2/32 [>.............................] - ETA: 2s - loss: 2.7870 - accuracy: 0.1500 
…
