Loading data...
Data loaded.
Selecting data...
Normalizing, selecting labels...
Data selected.
Model: "sequential"
_________________________________________________________________
 Layer (type)                Output Shape              Param #   
=================================================================
 conv2d (Conv2D)             (None, 150, 42, 16)       336       
                                                                 
 dropout (Dropout)           (None, 150, 42, 16)       0         
                                                                 
 flatten (Flatten)           (None, 100800)            0         
                                                                 
 dense (Dense)               (None, 32)                3225632   
                                                                 
 dropout_1 (Dropout)         (None, 32)                0         
                                                                 
 dense_1 (Dense)             (None, 14)                462       
                                                                 
=================================================================
Total params: 3,226,430
Trainable params: 3,226,430
Non-trainable params: 0
_________________________________________________________________
Epoch 1/50

 1/32 [..............................] - ETA: 44s - loss: 2.6340 - accuracy: 0.1000
 5/32 [===>..........................] - ETA: 0s - loss: 2.6764 - accuracy: 0.2440 
…
